Lessons/6.FunctionApproximators/agent_action_value.pt (torch_old, 2048 bytes, 4 tensors)

lin.0.weight f4 [50, 2]
0.039251335 0.6717875 0.031275146 0.08430577 0.0083249435 -0.135628 14.72711 123.61329
0.06613741 0.27646148 -0.33035052 0.38305035 0.2568082 0.32261026 0.21420655 0.45083126
12.927066 95.45475 0.24707773 0.82740325 -0.4013351 -0.5050672 0.62778896 -0.027754009
0.07729416 0.7048068 -0.014319897 -0.6993667 0.51752985 -0.56460506 0.30015856 0.65439695
-7.7035375 -347.11423 -0.010990024 0.4212006 -0.015625536 0.006421089 2.9608586 -27.837105
-0.02018921 0.050809983 0.23018914 -0.4808253 -0.10937172 -0.6931823 0.2689253 0.095890045
0.20750177 -0.00597769 0.047368526 0.43093884 0.3813823 -2.3801463 0.11158882 -0.87698597
0.12635721 1.4996902 -0.038097978 -0.12627017 44.963966 138.37238 0.19922999 0.14704695
0.3456803 -0.03676934 0.081815526 0.5459322 0.5014231 0.33748963 0.36682338 0.37499985
0.22673413 0.48731947 0.22045596 -0.15494457 15.741801 -147.04794 0.032831833 0.46242574
10.401381 263.14606 0.07348758 -0.3906433 0.059711784 0.007044643 -0.36100698 -0.4150984
0.4026726 -0.57086176 -0.24240404 -0.29599926 0.10296878 0.51071686 0.34747267 -1.6889329
0.3998555 -0.22847489 0.09695983 -0.1168074
00000000: 02c6 203d 44fa 2b3f 5e1a 003d 81a8 ac3d
00000010: 5865 083c 11e2 0abe 3ea2 6b41 013a f742
00000020: 0d73 873d 5c8c 8d3e b423 a9be 2d1f c43e
00000030: 5d7c 833e 2c2d a53e f658 5b3e 5bd3 e63e
00000040: 43d5 4e41 d5e8 be42 f201 7d3e b3d0 533f
00000050: cb7b cdbe 164c 01bf c7b6 203f 605c e3bc
00000060: 674c 9e3d 386e 343f 009e 6abc b209 33bf
00000070: d67c 043f f589 10bf 62ae 993e 8f86 273f
00000080: 6183 f6c0 9f8e adc3 800f 34bc 9ba7 d73e
00000090: 2001 80bc 0068 d23b b57e 3d40 64b2 dec1
000000a0: d863 a5bc 211e 503d b4b6 6b3e bc2e f6be
000000b0: 48fe dfbd 6574 31bf 94b0 893e 0062 c43d
000000c0: 587b 543e 80e0 c3bb 8005 423d 04a4 dc3e
000000d0: 8a44 c33e 5154 18c0 ae88 e43d 2782 60bf
000000e0: c963 013e d9f5 bf3f a00c 1cbd f84c 01be
000000f0: 1adb 3342 545f 0a43 f202 4c3e 7a93 163e
00000100: 02fd b03e 739b 16bd e68e a73d 36c2 0b3f
00000110: 445d 003f 71cb ac3e 46d0 bb3e fbff bf3e
00000120: fe2c 683e f081 f93e 35bf 613e caa9 1ebe
00000130: 6bde 7b41 460c 13c3 ac7a 063d 11c3 ec3e
00000140: 0e6c 2641 b292 8343 a880 963d 6602 c8be
00000150: 5894 743d c0d6 e63b e8d5 b8be c787 d4be
00000160: 1a2b ce3e ff23 12bf c438 78be 378d 97be
00000170: 4ce1 d23d 57be 023f f0e7 b13e f42e d8bf
00000180: dcb9 cc3e 52f5 69be e092 c63d b838 efbd

lin.0.bias f4 [50]
-0.20271203 -0.1867929 -0.016751558 3.0852952 -0.19356027 -0.43836755 -0.31004682 -0.21608566
2.0882554 -0.28254327 -0.5066668 -0.6472638 -0.19525146 -0.32764065 -0.58111274 -0.61755836
1.5167243 -0.14902225 -0.18202329 -2.4184515 -0.08719688 -0.36327532 -0.40782225 -0.2220344
-0.6544061 -0.09451839 -0.44938225 -0.20878093 -0.18218261 -0.5343473 1.1464351 -0.2077883
-0.33038402 -0.09197655 -0.47990626 -0.49354583 -0.29480326 -0.23308727 0.44065177 -0.15689856
9.502216 -0.54344475 -0.11442498 -0.617512 -0.46515054 -0.33194673 -0.2090567 -0.3786357
-0.3978171 -0.28888857
00000000: be93 4fbe a346 3fbe 903a 89bc 7a75 4540
00000010: aa34 46be b671 e0be 75be 9ebe 8f45 5dbe
00000020: faa5 0540 83a9 90be eab4 01bf 15b3 25bf
00000030: 00f0 47be 84c0 a7be cec3 14bf 4e18 1ebf
00000040: 0624 c23f 4a99 18be 5064 3abe e9c7 1ac0
00000050: 4794 b2bd 39ff b9be 14ce d0be fc5c 63be
00000060: 2887 27bf dc92 c1bd 6e15 e6be abca 55be
00000070: 148e 3abe fcca 08bf 63be 923f 75c6 54be
00000080: 1828 a9be 345e bcbd 46b6 f5be 0ab2 fcbe
00000090: 74f0 96be 6eae 6ebe 1c9d e13e 04aa 20be
000000a0: 1409 1841 321f 0bbf a557 eabd 4415 1ebf
000000b0: 3628 eebe ecf4 a9be f612 56be 8adc c1be
000000c0: afae cbbe 34e9 93be

lin.2.weight f4 [3, 50]
0.09978468 -0.012299553 0.0073536187 -45.818184 -0.008718758 -0.13826948 0.029489405 -0.018281367
-21.921333 0.035149425 0.010230541 0.088606656 0.021394245 -0.053416766 -0.09080596 0.015336424
182.7445 0.09263462 0.12845932 -4.9705043 0.04001699 0.014695331 0.14001222 0.0012030369
0.116429284 -0.040245794 0.012119489 -0.0436995 -0.04467465 -0.031416245 143.10727 -0.17976768
-0.048903316 -0.08242594 0.007331997 0.03352733 0.015810221 0.017081864 112.50316 0.039381247
114.875984 0.119575456 0.0089857355 0.110030964 0.0978758 0.024737269 0.0793009 0.053170588
0.11348848 -0.112544514 0.09001208 0.1180454 -0.036407128 -48.85991 -0.07225467 0.07843694
0.03836663 0.10250646 -30.382795 0.18980296 -0.10524267 0.019808367 -0.07561408 0.056541428
-0.0034213066 -0.016972236 172.79645 -0.047266323 -0.12244099 -3.1710367 0.020728191 0.09788212
0.099279955 0.050317742 0.019744352 -0.058403447 -0.14793187 0.054946866 -0.1556436 0.06824604
201.29485 0.20877539 0.08950932 -0.090913944 -0.030972831 0.057073653 -0.17504731 0.026246523
30.81934 -0.07372776 119.957466 0.08656709 -0.16636223 -0.030497812 -0.19285798 -0.020923585
-0.03936276 -0.15609095 0.12348351 -0.1379151 -0.05173288 -0.05011727 -0.19713327 -5.119348
0.015577605 -0.06032925 0.16915773 0.091633014 -38.600964 0.044427827 0.037702665 0.13470982
-0.052152503 0.06947994 0.012112379 0.06391652 187.60732 -0.053130057 -0.10935131 0.27117512
-0.0817728 -0.07850491 -0.002835229 0.07548909 -0.0650754 -0.05983889 -0.11081453 0.017435245
-0.07236394 0.014353484 249.61636 0.078918904 0.050157383 0.013823073 0.07706308 -0.041404076
0.016834758 0.041410856 -79.55351 -0.098595865 109.15206 -0.051078998 -0.21863143 -0.08297287
0.06189736 0.037080735 0.0030810814 -0.15777579 -0.027406976 0.11402221
00000000: e95b cc3d 1084 49bc a0f6 f03b d245 37c2
00000010: 1fd9 0ebc 8496 0dbe c493 f13c cec2 95bc
00000020: e45e afc1 d8f8 0f3d 009e 273c 6877 b53d
00000030: fc42 af3c 8acb 5abd 7af8 b9bd a045 7b3c
00000040: 98be 3643 38b7 bd3d d78a 033e 5f0e 9fc0
00000050: dbe8 233d b0c4 703c 5d5f 0f3e 38af 9d3a
00000060: 7a72 ee3d c6d8 24bd d290 463c 3ffe 32bd
00000070: c4fc 36bd 52ae 00bd 761b 0f43 0515 38be
00000080: d84e 48bd eece a8bd 4041 f03b f453 093d
00000090: 7084 813c 44ef 8b3c 9e01 e142 3b4e 213d
000000a0: 81c0 e542 fae3 f43d e838 133c ea57 e13d
000000b0: 1c73 c83d d0a5 ca3c 8368 a23d 67c9 593d
000000c0: a66c e83d bd7d e6bd 4158 b83d c9c1 f13d
000000d0: a41f 15bd 8c70 43c2 42fa 93bd 8ca3 a03d
000000e0: 5426 1d3d e8ee d13d f70f f3c1 b55b 423e
000000f0: 7889 d7bd 2845 a23c 8edb 9abd fc97 673d
00000100: 0038 60bb 5c09 8bbc e4cb 2c43 559a 41bd
00000110: 57c2 fabd 44f2 4ac0 2bce a93c 6c76 c83d
00000120: 4a53 cb3d fa19 4e3d e8be a13c 7438 6fbd
00000130: 747b 17be f70f 613d 0961 1fbe 94c4 8b3d
00000140: 7b4b 4943 37c9 553e aa50 b73d 1731 babd
00000150: bcba fdbc 10c6 693d 9a3f 33be f302 d73c
00000160: 028e f641 94fe 96bd 39ea ef42 164a b13d
00000170: dc5a 2abe 8cd6 f9bc 907c 45be f067 abbc
00000180: d83a 21bd 4ed6 1fbe ece4 fc3d 9e39 0dbe
00000190: dbe5 53bd c447 4dbd 4edd 49be b3d1 a3c0
000001a0: 3639 7f3c ce1b 77bd af37 2d3e 17aa bb3d
000001b0: 6367 1ac2 f4f9 353d 1c6e 1a3d 5ff1 093e
000001c0: dd9d 55bd 804b 8e3d 0073 463c aae6 823d
000001d0: 799b 3b43 e79e 59bd 94f3 dfbd 77d7 8a3e
000001e0: 7f78 a7bd 2fc7 a0bd 40cf 39bb 069a 9a3d
000001f0: 4046 85bd a019 75bd baf2 e2bd 5cd4 8e3c
00000200: 8c33 94bd e02a 6b3c ca9d 7943 3ca0 a13d
00000210: d471 4d3d 2c7a 623c 40d3 9d3d 5297 29bd
00000220: 0ce9 893c 6e9e 293d 661b 9fc2 a1ec c9bd
00000230: db4d da42 3638 51bd ebe0 5fbe aeed a9bd
00000240: 1688 7d3d f8e1 173d f8eb 493b fa8f 21be
00000250: 9884 e0bc 7a84 e93d

lin.2.bias f4 [3]
112.18763 93.62923 68.331
00000000: 1160 e042 2a42 bb42 79a9 8842
